…
 warmup_momentum=0.8, warmup_bias_lr=0.1, box=0.05, cls=0.3, cls_pw=1.0, obj=0.7, obj_pw=1.0, iou_t=0.2, anchor_t=4.0, fl_gamma=0.0, hsv_h=0.015, hsv_s=0.7, hsv_v=0.4, degrees=0.0, translate=0.2, scale=0.5, shear=0.0, perspective=0.0, flipud=0.0, fliplr=0.5, mosaic=1.0, mixup=0.0, copy_paste=0.0, paste_in=0.0, loss_ota=1\n","\u001b[34m\u001b[1mwandb: \u001b[0mInstall Weights & Biases for YOLOR logging with 'pip install wandb' (recommended)\n","\n","                 from  n    params  module                                  arguments                     \n","  0                -1  1      1160  models.common.Conv                      [3, 40, 3, 1]                 \n","  1                -1  1     28960  models.common.Conv                      [40, 80, 3, 2]                \n","  2                -1  1     57760  models.common.Conv                      [80, 80, 3, 1]                \n","  3                -1  1    115520  models.common.Conv                      [80, 160, 3, 2]               \n","  4                -1  1     10368  models.common.Conv                      [160, 64, 1, 1]               \n","  5                -2  1     10368  models.common.Conv                      [160, 64, 1, 1]               \n","  6                -1  1     36992  models.common.Conv                      [64, 64, 3, 1]                \n","  7                -1  1     36992  models.common.Conv                      [64, 64, 3, 1]                \n","  8                -1  1     36992  models.common.Conv                      [64, 64, 3, 1]                \n","  9                -1  1     36992  models.common.Conv                      [64, 64, 3, 1]                \n"," 10                -1  1     36992  models.common.Conv                      [64, 64, 3, 1]                \n"," 11                -1  1     36992  models.common.Conv                      [64, 64, 3, 1]                \n"," 12[-1, -3, -5, -7, -8]  1         0  models.common.Concat                    [1]                           \n"," 13                -1  1    103040  models.common.Conv                      [320, 320, 1, 1]              \n"," 14                -1  1         0  models.common.MP                        []                            \n"," 15                -1  1     51520  models.common.Conv                      [320, 160, 1, 1]              \n"," 16                -3  1     51520  models.common.Conv                      [320, 160, 1, 1]              \n"," 17                -1  1    230720  models.common.Conv                      [160, 160, 3, 2]              \n"," 18          [-1, -3]  1         0  models.common.Concat                    [1]                           \n"," 19                -1  1     41216  models.common.Conv                      [320, 128, 1, 1]              \n"," 20                -2  1     41216  models.common.Conv                      [320, 128, 1, 1]              \n"," 21                -1  1    147712  models.common.Conv                      [128, 128, 3, 1]              \n"," 22                -1  1    147712  models.common.Conv                      [128, 128, 3, 1]              \n"," 23                -1  1    147712  models.common.Conv                      [128, 128, 3, 1]              \n"," 24                -1  1    147712  models.common.Conv                      [128, 128, 3, 1]              \n"," 25                -1  1    147712  models.common.Conv                      [128, 128, 3, 1]              \n"," 26                -1  1    147712  models.common.Conv                      [128, 128, 3, 1]              \n"," 27[-1, -3, -5, -7, -8]  1         0  models.common.Concat                    [1]                           \n"," 28                -1  1    410880  models.common.Conv                      [640, 640, 1, 1]              \n"," 29                -1  1         0  models.common.MP                        []                            \n"," 30                -1  1    205440  models.common.Conv                      [640, 320, 1, 1]              \n"," 31                -3  1    205440  models.common.Conv                      [640, 320, 1, 1]              \n"," 32                -1  1    922240  models.common.Conv                      [320, 320, 3, 2]              \n"," 33          [-1, -3]  1         0  models.common.Concat                    [1]                           \n"," 34                -1  1    164352  models.common.Conv                      [640, 256, 1, 1]              \n"," 35                -2  1    164352  models.common.Conv                      [640, 256, 1, 1]              \n"," 36                -1  1    590336  models.common.Conv                      [256, 256, 3, 1]              \n"," 37                -1  1    590336  models.common.Conv                      [256, 256, 3, 1]              \n"," 38                -1  1    590336  models.common.Conv                      [256, 256, 3, 1]              \n"," 39                -1  1    590336  models.common.Conv                      [256, 256, 3, 1]              \n"," 40                -1  1    590336  models.common.Conv                      [256, 256, 3, 1]              \n"," 41                -1  1    590336  models.common.Conv                      [256, 256, 3, 1]              \n"," 42[-1, -3, -5, -7, -8]  1         0  models.common.Concat                    [1]                           \n"," 43                -1  1   1640960  models.common.Conv                      [1280, 1280, 1, 1]            \n"," 44                -1  1         0  models.common.MP                        []                            \n"," 45                -1  1    820480  models.common.Conv                      [1280, 640, 1, 1]             \n"," 46                -3  1    820480  models.common.Conv                      [1280, 640, 1, 1]             \n"," 47                -1  1   3687680  models.common.Conv                      [640, 640, 3, 2]              \n"," 48          [-1, -3]  1         0  models.common.Concat                    [1]                           \n"," 49                -1  1    328192  models.common.Conv                      [1280, 256, 1, 1]             \n"," 50                -2  1    328192  models.common.Conv                      [1280, 256, 1, 1]             \n"," 51                -1  1    590336  models.common.Conv                      [256, 256, 3, 1]              \n"," 52                -1  1    590336  models.common.Conv                      [256, 256, 3, 1]              \n"," 53                -1  1    590336  models.common.Conv                      [256, 256, 3, 1]              \n"," 54                -1  1    590336  models.common.Conv                      [256, 256, 3, 1]              \n"," 55                -1  1    590336  models.common.Conv                      [256, 256, 3, 1]              \n"," 56                -1  1    590336  models.common.Conv                      [256, 256, 3, 1]              \n"," 57[-1, -3, -5, -7, -8]  1         0  models.common.Concat                    [1]                           \n"," 58                -1  1   1640960  models.common.Conv                      [1280, 1280, 1, 1]            \n"," 59                -1  1  11887360  models.common.SPPCSPC                   [1280, 640, 1]                \n"," 60                -1  1    205440  models.common.Conv                      [640, 320, 1, 1]              \n"," 61                -1  1         0  torch.nn.modules.upsampling.Upsample    [None, 2, 'nearest']          \n"," 62                43  1    410240  models.common.Conv                      [1280, 320, 1, 1]             \n"," 63          [-1, -2]  1         0  models.common.Concat                    [1]                           \n"," 64                -1  1    164352  models.common.Conv                      [640, 256, 1, 1]              \n"," 65                -2  1    164352  models.common.Conv                      [640, 256, 1, 1]              \n"," 66                -1  1    590336  models.common.Conv                      [256, 256, 3, 1]              \n"," 67                -1  1    590336  models.common.Conv                      [256, 256, 3, 1]              \n"," 68                -1  1    590336  models.common.Conv                      [256, 256, 3, 1]              \n"," 69                -1  1    590336  models.common.Conv                      [256, 256, 3, 1]              \n"," 70                -1  1    590336  models.common.Conv                      [256, 256, 3, 1]              \n"," 71                -1  1    590336  models.common.Conv                      [256, 256, 3, 1]              \n"," 72[-1, -3, -5, -7, -8]  1         0  models.common.Concat                    [1]                           \n"," 73                -1  1    410240  models.common.Conv                      [1280, 320, 1, 1]             \n"," 74                -1  1     51520  models.common.Conv                      [320, 160, 1, 1]              \n"," 75                -1  1         0  torch.nn.modules.upsampling.Upsample    [None, 2, 'nearest']          \n"," 76                28  1    102720  models.common.Conv                      [640, 160, 1, 1]              \n"," 77          [-1, -2]  1         0  models.common.Concat                    [1]                           \n"," 78                -1  1     41216  models.common.Conv                      [320, 128, 1, 1]              \n"," 79                -2  1     41216  models.common.Conv                      [320, 128, 1, 1]              \n"," 80                -1  1    147712  models.common.Conv                      [128, 128, 3, 1]              \n"," 81                -1  1    147712  models.common.Conv                      [128, 128, 3, 1]              \n"," 82                -1  1    147712  models.common.Conv                      [128, 128, 3, 1]              \n"," 83                -1  1    147712  models.common.Conv                      [128, 128, 3, 1]              \n"," 84                -1  1    147712  models.common.Conv                      [128, 128, 3, 1]              \n"," 85                -1  1    147712  models.common.Conv                      [128, 128, 3, 1]              \n"," 86[-1, -3, -5, -7, -8]  1         0  models.common.Concat                    [1]                           \n"," 87                -1  1    102720  models.common.Conv                      [640, 160, 1, 1]              \n"," 88                -1  1         0  models.common.MP                        []                            \n"," 89                -1  1     25920  models.common.Conv                      [160, 160, 1, 1]              \n"," 90                -3  1     25920  models.common.Conv                      [160, 160, 1, 1]              \n"," 91                -1  1    230720  models.common.Conv                      [160, 160, 3, 2]              \n"," 92      [-1, -3, 73]  1         0  models.common.Concat                    [1]                           \n"," 93                -1  1    164352  models.common.Conv                      [640, 256, 1, 1]              \n"," 94                -2  1    164352  models.common.Conv                      [640, 256, 1, 1]              \n"," 95                -1  1    590336  models.common.Conv                      [256, 256, 3, 1]              \n"," 96                -1  1    590336  models.common.Conv                      [256, 256, 3, 1]              \n"," 97                -1  1    590336  models.common.Conv                      [256, 256, 3, 1]              \n"," 98                -1  1    590336  models.common.Conv                      [256, 256, 3, 1]              \n"," 99                -1  1    590336  models.common.Conv                      [256, 256, 3, 1]              \n","100                -1  1    590336  models.common.Conv                      [256, 256, 3, 1]              \n","101[-1, -3, -5, -7, -8]  1         0  models.common.Concat                    [1]                           \n","102                -1  1    410240  models.common.Conv                      [1280, 320, 1, 1]             \n","103                -1  1         0  models.common.MP                        []                            \n","104                -1  1    103040  models.common.Conv                      [320, 320, 1, 1]              \n","105                -3  1    103040  models.common.Conv                      [320, 320, 1, 1]              \n","106                -1  1    922240  models.common.Conv                      [320, 320, 3, 2]              \n","107      [-1, -3, 59]  1         0  models.common.Concat                    [1]                           \n","108                -1  1    656384  models.common.Conv                      [1280, 512, 1, 1]             \n","109                -2  1    656384  models.common.Conv                      [1280, 512, 1, 1]             \n","110                -1  1   2360320  models.common.Conv                      [512, 512, 3, 1]              \n","111                -1  1   2360320  models.common.Conv                      [512, 512, 3, 1]              \n","112                -1  1   2360320  models.common.Conv                      [512, 512, 3, 1]              \n","113                -1  1   2360320  models.common.Conv                      [512, 512, 3, 1]              \n","114                -1  1   2360320  models.common.Conv                      [512, 512, 3, 1]              \n","115                -1  1   2360320  models.common.Conv                      [512, 512, 3, 1]              \n","116[-1, -3, -5, -7, -8]  1         0  models.common.Concat                    [1]                           \n","117                -1  1   1639680  models.common.Conv                      [2560, 640, 1, 1]             \n","118                87  1    461440  models.common.Conv                      [160, 320, 3, 1]              \n","119               102  1   1844480  models.common.Conv                      [320, 640, 3, 1]              \n","120               117  1   7375360  models.common.Conv                      [640, 1280, 3, 1]             \n","121   [118, 119, 120]  1     42668  models.yolo.IDetect                     [1, [[12, 16, 19, 36, 40, 28], [36, 75, 76, 55, 72, 146], [142, 110, 192, 243, 459, 401]], [320, 640, 1280]]\n","Model Summary: 467 layers, 70815092 parameters, 70815092 gradients\n","\n","Transferred 630/644 items from yolov7x.pt\n","Scaled weight_decay = 0.0005\n","Optimizer groups: 108 
…
